vae_model.pth (torch, 9695 bytes, 10 tensors)

encoder.0.weight f4 [32, 20]
0.19327031 -0.07880852 -0.10320444 0.1510468 -0.19560651 -0.022738505 0.20112824 0.05420741
-0.17514166 0.13140291 -0.0050190017 0.06785881 -0.106013 0.028524917 -0.11046134 0.07358196
-0.13480231 -0.15468381 -0.17280443 0.08969041 -0.22274181 -0.17880239 -0.003916567 -0.18642542
0.12588865 0.096144915 -0.16089232 -0.09592191 -0.11865319 0.17613997 -0.084315 -0.116727054
-0.21369833 -0.13672177 -0.14037918 -0.012399974 -0.08624469 0.066824906 -0.21041633 -0.18639362
0.11907894 0.16916698 -0.08855207 -0.1893362 -0.08994111 -0.11320777 -0.13797855 -0.1897888
-0.19624168 -0.15146033 -0.07447011 0.076424815 0.07704095 0.005491438 0.0047984123 -0.045506906
0.11995816 -0.023371974 -0.090139 0.16611326 0.21049988 0.027097194 0.080784105 0.008769107
-0.011257177 0.12779854 0.1368347 0.037283216 -0.18548976 0.19148532 -0.12614992 0.19409351
-0.1547955 0.017414996 0.042476356 0.117108874 -0.04368734 -0.11946457 0.008956507 -0.10485985
0.11390525 0.0803822 -0.16106063 -0.012271672 -0.047684748 -0.116675064 0.112914264 -0.198698
0.057786584 0.056311768 0.0026971514 9.290477e-05 0.1236925 -0.05918589 0.122687235 0.13943312
-0.1673676 0.025392925 0.13667013 -0.2036078 0.059659556 -0.03613714 -0.07575795 0.1158174
0.042285852 0.13671015 0.22796829 0.042166546 0.1993064 -0.04349093 -0.12975782 -0.13443442
0.18919402 -0.01616137 -0.120752424 0.103224665 -0.14224416 -0.087859154 -0.1524986 -0.08553922
-0.08387886 0.021272 -0.15371384 -0.21264696 0.038192116 -0.024715103 -0.18374985 0.011649288
0.04297447 -0.104040846 0.21968578 0.044567883 0.10421115 -0.03985521 -0.06084383 0.20335911
-0.1750958 -0.10886855 -0.14987247 0.10680881 -0.17370981 0.13039747 0.115786344 -0.18535338
0.07634602 0.08669759 -0.01070163 0.0050235395 0.08543073 -0.20874126 -0.06919398 -0.011697179
-0.22777429 0.13034548 0.043985117 0.0097901 -0.18229859 -0.10150693 0.09050075 0.089183606
0.06687392 -0.21718685 -0.03463863 -0.10266909 0.056580454 -0.065937005 0.12938552 -0.022966525
-0.07846411 -0.048469495 0.19979249 -0.08737161 0.013556885 0.10234249 -0.21619794 -0.03890046
0.21068242 -0.15953477 0.12659378 0.023975875 0.0016510998 0.111859076 0.025189625 -0.12487758
-0.038455043 0.08399458 0.11711604 0.044699866 0.053425096 -0.1566795 0.03429609 -0.05666737
-0.21057925 0.12867853 0.14894849 0.16681573 -0.213459 0.1368391 -0.13889855 0.039768334
0.20926264 -0.05510467 -0.025599977 -0.17471659 -0.1012222 0.07114859 0.051984426 0.08673742
0.09647898 -0.024145244 -0.18535191 0.14531262 0.0845384 0.15422688 -0.1742516 0.10329482
-0.11701354 0.13590518 -0.14457533 0.119862266 0.019705 -0.22048937 0.059472192 0.19611448
0.16325197 -0.1429652 -0.016365776 -0.016643424 0.16690637 0.17429292 0.052376788 -0.08284026
0.15305954 0.022235055 -0.166099 -0.13158645 -0.08242216 -0.16140029 -0.14794926 -0.04388917
-0.016714783 0.03542135 0.06623868 0.22466815 -0.17276599 -0.13508996 -0.1754477 -0.1857832
0.11618291 -0.022376195 0.050489683 -0.07627249 -0.118824996 0.12352002 0.094592884 0.10820302
00000000: a7e8 453e 5d66 a1bd d95c d3bd 03ac 1a3e
00000010: 134d 48be 1a46 babc 90f4 4d3e 9708 5e3d
00000020: 5658 33be 7c8e 063e 7076 a4bb 8ff9 8a3d
00000030: 581d d9bd 16ad e93c 8e39 e2bd 23b2 963d
00000040: 9e09 0abe 6f65 1ebe a5f3 30be 9baf b73d
00000050: 6e16 64be f917 37be 8c56 80bb 4ee6 3ebe
00000060: f4e8 003e a0e7 c43d f5c0 24be b572 c4bd
00000070: 7200 f3bd 095e 343e 58ad acbd 980e efbd
00000080: bcd3 5abe cb00 0cbe 8fbf 0fbe 4329 4bbc
00000090: 0ea1 b0bd 7fdb 883d 6177 57be f8dd 3ebe
000000a0: a9df f33d 1c3a 2d3e ca5a b5bd 59e1 41be
000000b0: 0b33 b8bd 7ad9 e7bd 404a 0dbe ff57 42be
000000c0: 94f3 48be 6b18 1bbe c983 98bd 9d84 9c3d
000000d0: a5c7 9d3d 85f1 b33b 003c 9d3b 7365 3abd
000000e0: a0ac f53d 9576 bfbc cc9a b8bd 9819 2a3e
000000f0: 488d 573e effa dd3c 2372 a53d 4dac 0f3c
00000100: 0670 38bc 9fdd 023e 651e 0c3e 49b6 183d
00000110: 07f1 3dbe ba14 443e 722d 01be 73c0 463e
00000120: b682 1ebe e5a9 8e3c b0fb 2d3d c7d6 ef3d
00000130: 7ff1 32bd d7a9 f4bd 50be 123c c3c0 d6bd
00000140: 2847 e93d 6c9f a43d 14ed 24be 1f0f 49bc
00000150: 1551 43bd 56f3 eebd 983f e73d 7d77 4bbe
00000160: a0b1 6c3d 2ba7 663d b1c2 303b ded5 c238
00000170: 7e52 fd3d e76c 72bd 7243 fb3d 8ec7 0e3e
00000180: 6a62 2bbe d304 d03c 41f3 0b3e 907e 50be
00000190: 945d 743d 8a04 14bd fc26 9bbd ac31 ed3d
000001a0: ee33 2d3d bffd 0b3e 8570 693e d4b6 2c3d
000001b0: fa16 4c3e 8c23 32bd 3cdf 04be 2da9 09be
000001c0: 14bc 413e d964 84bc 0c4d f7bd 7467 d33d
000001d0: 74a8 11be 80ef b3bd 9828 1cbe 302f afbd
000001e0: aec8 abbd 9e42 ae3c 2967 1dbe 20c0 59be
000001f0: 566f 1c3d 5477 cabc ec28 3cbe a8dc 3e3c
00000200: ff05 303d 5e13 d5bd 4ff5 603e d08c 363d
00000210: a86c d53d 373f 23bd 6137 79bd 5f3d 503e
00000220: 504c 33be 79f6 debd 2b78 19be 94be da3d
00000230: fce0 31be ea86 053e 6421 ed3d 47cd 3dbe
00000240: 4d5b 9c3d 828e b13d e455 2fbc 819c a43b
00000250: 4ef6 ae3d 45c0 55be 93b5 8dbd 86a5 3fbc
00000260: aa3d 69be 4979 053e bd29 343d a866 203c
00000270: 7bac 3abe dee2 cfbd 7558 b93d e5a5 b63d
00000280: 32f5 883d 3b66 5ebe 3ce1 0dbd 2c44 d2bd
00000290: e8c0 673d fb09 87bd a37d 043e 4b24 bcbc
000002a0: cbb1 a0bd f387 46bd 6796 4c3e e3ef b2bd
000002b0: b21d 5e3c f098 d13d fe62 5dbe 1756 1fbd
000002c0: 22bd 573e 155d 23be cda1 013e 0e69 c43c
000002d0: b769 d83a 5f16 e53d 795a ce3c d1bf ffbd
000002e0: 0983 1dbd 5a05 ac3d 89da ef3d 3517 373d
000002f0: 46d4 5a3d 9770 20be 0f7a 0c3d 0b1c 68bd
00000300: 16a2 57be 4ec4 033e f485 183e bed1 2a3e
00000310: ff94 5abe 8d1f 0c3e 6c3b 0ebe 1fe4 223d
00000320: f248 563e 6fb5 61bd 0bb7 d1bc e8e8 32be
00000330: 964d cfbd 5ab6 913d 9fed 543d 63a3 b13d
00000340: c596 c53d 3fcc c5bc e4cc 3dbe d5cc 143e
00000350: 7822 ad3d a7ed 1d3e 036f 32be 3c8c d33d
00000360: cba4 efbd ba2a 0b3e 8e0b 14be 597a f53d
00000370: 616c a13c f7c7 61be 1d99 733d 3cd2 483e
00000380: 862b 273e 7865 12be 8511 86bc ca57 88bc
00000390: 81e9 2a3e d879 323e 0b89 563d 27a8 a9bd
000003a0: a4bb 1c3e 4a26 b63c db15 2abe 99be 06be
000003b0: f3cc a8bd 1e46 25be 0380 17be 21c5 33bd
000003c0: 71ed 88bc fa15 113d 25a8 873d 680f 663e
000003d0: 91e9 30be 0655 0abe 90a8 33be f43d 3ebe
000003e0: 4ef1 ed3d 484e b7bc 45ce 4e3d c034 9cbd
000003f0: 855a f3bd 10f8 fc3d eab9 c13d 8c99 dd3d

encoder.0.bias f4 [32]
0.12907933 -0.21494338 0.11771927 -0.071745515 0.05652021 0.21217969 0.008028549 0.06203206
-0.06704492 -0.11331113 -0.129253 0.13496885 0.08963959 0.17980383 0.16366199 0.047009032
0.009367917 0.08678769 -0.08349849 0.05268013 0.04841187 -0.13413143 0.12895323 0.16075595
0.17297958 0.038658753 -0.097385004 -0.14380345 -0.055614743 0.123098716 0.019405173 0.090926304
00000000: 5f2d 043e 1e1a 5cbe cd16 f13d 50ef 92bd
00000010: bc81 673d a245 593e 2d8a 033c 5415 7e3d
00000020: d94e 89bd aa0f e8bd e65a 04be 4635 0a3e
00000030: f694 b73d 7f1e 383e 0297 273e 8b8c 403d
00000040: e47b 193c bfbd b13d 4201 abbd 1fc7 573d
00000050: 864b 463d c059 09be 510c 043e 359d 243e
00000060: 8f21 313e a458 1e3d ca71 c7bd 3641 13be
00000070: 49cc 63bd 2e1b fc3d 99f7 9e3c 9237 ba3d

latent_mean.weight f4 [2, 32]
-0.048378807 -0.016783148 0.13646676 0.01408696 -0.0041627283 0.02895446 -0.06874956 -0.0061295824
-0.018692765 -0.122760005 -0.11686212 -0.14045689 0.00079336215 0.16828263 0.012952438 0.046443354
0.048922576 0.025850836 -0.111915156 0.002471809 0.056498863 -0.11908381 -0.089124516 0.035267293
-0.015376525 0.0017667984 -0.019586267 -0.053326752 0.006187886 -0.047147956 -0.08690501 0.033178482
0.023586454 -0.018917192 0.13656805 -0.018371077 0.012137473 0.010149977 0.118767984 0.023276716
0.1415729 0.047530755 0.023142062 -0.03289098 -0.006514146 -0.030255852 -0.008282515 -0.12113299
0.052059676 -0.006716194 0.02399472 0.11084812 0.08222157 -0.13876118 0.036224555 0.013890412
-0.021226518 -0.105332 0.030693509 -0.057453975 -0.05734758 0.07109106 0.0987406 0.095613495
00000000: db28 46bd d07c 89bc f1bd 0b3e fecc 663c
00000010: 7f67 88bb e731 ed3c 92cc 8cbd aada c8bb
00000020: 9221 99bc 9969 fbbd 6855 efbd eed3 0fbe
00000030: a2f9 4f3a 4852 2c3e 7636 543c 633b 3e3d
00000040: 0a63 483d 22c5 d33c c633 e5bd 13fe 213b
00000050: 5a6b 673d 36e2 f3bd ea86 b6bd 7074 103d
00000060: d2ed 7bbc eb93 e73a 6173 a0bc 276d 5abd
00000070: c0c3 ca3b 371e 41bd 41fb b1bd 29e6 073d
00000080: 6138 c13c 3af8 9abc 7fd8 0b3e f17e 96bc
00000090: 40dc 463c 174c 263c a13c f33d d0ae be3c
000000a0: 7cf8 103e 9caf 423d 6c94 bd3c b1b8 06bd
000000b0: 9e74 d5bb 1fdb f7bc 63b3 07bc 9314 f8bd
000000c0: 873c 553d 8513 dcbb 9390 c43c 5704 e33d
000000d0: c863 a83d 6917 0ebe 3360 143d 9c94 633c
000000e0: 3ce3 adbc 4eb8 d7bd f470 fb3c dc54 6bbd
000000f0: 4ce5 6abd 3198 913d 8338 ca3d 02d1 c33d

latent_mean.bias f4 [2]
-0.009318249 -0.00960283
00000000: 92ab 18bc 3055 1dbc

latent_logvar.weight f4 [2, 32]
-0.05261635 0.060068764 -0.057328608 0.034288287 -0.040536568 -0.035956115 -0.038987394 0.013465149
-0.13976869 -0.09589084 -0.13361841 -0.15224358 0.07438476 0.11478599 -0.0034680623 -0.0132313715
-0.068286225 -0.10564202 0.07069197 -0.10410673 0.014920385 0.10518972 -0.06887518 -0.018026225
0.037004903 0.05418191 -0.042784 0.04316035 -0.07893598 -0.047824327 -0.08206788 0.051773567
0.14287965 0.07746654 0.14196755 0.03104603 0.085539095 -0.072266184 -0.15336402 0.010841823
-0.020535976 -0.144734 0.13693202 0.076701425 0.13419043 -0.1368772 -0.111318305 -0.02414208
-0.18099257 -0.009608089 0.15007168 -0.10495378 0.015992474 0.14598556 -0.09720689 -0.012098254
-0.056922153 -0.05928591 -0.11316269 0.14690298 -0.004209205 -0.09344213 0.11858907 -0.07577847
00000000: 3e84 57bd aa0a 763d 67d1 6abd e071 0c3d
00000010: ac09 26bd b846 13bd 3fb1 1fbd ee9c 5c3c
00000020: 861f 0fbe 6b62 c4bd 44d3 08be bee5 1bbe
00000030: 0957 983d eb14 eb3d 6e48 63bb 65c8 58bc
00000040: a6d9 8bbd d85a d8bd f4c6 903d e935 d5bd
00000050: a174 743c b56d d73d 6e0e 8dbd bcab 93bc
00000060: 7492 173d daed 5d3d 473e 2fbd e8c8 303d
00000070: 30a9 a1bd 71e3 43bd 3413 a8bd 8510 543d
00000080: 0b4f 123e c7a6 9e3d f15f 113e 3e54 fe3c
00000090: 1f2f af3d 4b00 94bd 750b 1dbe e7a1 313c
000000a0: 103b a8bc 2635 14be e837 0c3e a315 9d3d
000000b0: 3769 093e 8929 0cbe dafa e3bd 9dc5 c5bc
000000c0: 1e56 39be 3f6b 1dbc 64ac 193e 02f2 d6bd
000000d0: a602 833c 3d7d 153e 6814 c7bd c137 46bc
000000e0: 3427 69bd c8d5 72bd d7c1 e7bd bc6d 163e
000000f0: 5fed 89bb 965e bfbd d4de f23d be31 9bbd

latent_logvar.bias f4 [2]
0.073987044 0.10820668
00000000: 8586 973d 779b dd3d

decoder.0.weight f4 [32, 2]
-0.27696946 0.41901672 0.07221576 -0.39361256 0.072844945 0.26087582 0.28869745 -0.043980256
0.38950795 0.44606817 0.3757957 0.110974416 -0.1109701 0.25826484 -0.40292308 0.36519283
-0.43429604 0.42870772 -0.5810603 -0.7448686 0.4739713 0.57386935 -0.040140294 0.29987875
0.59704936 0.15433906 0.40173408 -0.42590147 -0.33077192 -0.08299704 -0.6408063 -0.72004443
0.3272051 0.5322814 0.36965856 -0.25845835 -0.25051206 0.24676841 0.08558693 -0.09569185
0.2211315 -0.19338222 0.26968673 0.13348699 0.14404683 -0.1373656 -0.33809394 -0.10077459
-0.16491054 -0.047742262 0.5076413 0.72609437 0.17582394 -0.069599755 -0.40740103 -0.48141778
-0.49238387 -0.70754313 0.234455 -0.17885607 0.5713955 0.11074882 -0.089271486 0.054851357
00000000: f1ce 8dbe 5c89 d63e dbe5 933d 9687 c9be
00000010: bb2f 953d 8491 853e 27d0 933e a424 34bd
00000020: 966d c73e 0c63 e43e 4b68 c03e 8e46 e33d
00000030: 4b44 e3bd 4a3b 843e ef4b cebe 8efa ba3e
00000040: 0d5c debe 947f db3e 5ec0 14bf b5af 3ebf
00000050: 5eac f23e 1ae9 123f 266a 24bd b589 993e
00000060: 3ad8 183f 0f0b 1e3e 17b0 cd3e c20f dabe
00000070: f05a a9be 5afa a9bd e20b 24bf d554 38bf
00000080: 6d87 a73e 9843 083f e343 bd3e a754 84be
00000090: 1e43 80be dcb0 7c3e 3348 af3d 17fa c3bd
000000a0: 4c70 623e fd05 46be 6114 8a3e d0b0 083e
000000b0: 0381 133e 91a9 0cbe a61a adbe e962 cebd
000000c0: 4fde 28be 648d 43bd c8f4 013f 52e1 393f
000000d0: 310b 343e 518a 8ebd de96 d0be 647c f6be
000000e0: bd19 fcbe 8c21 35bf f914 703e 0c26 37be
000000f0: fa46 123f 47d0 e23d f8d3 b6bd d1ab 603d

decoder.0.bias f4 [32]
0.3484857 -0.43503115 0.4352591 0.88125765 -0.13117306 -0.7934279 0.5927274 0.31139293
0.39011464 0.11860668 -0.58577985 0.31564587 -0.11002273 -0.4181079 1.0310574 -0.29696843
0.36983144 0.11818556 0.95013547 0.5219388 0.78375936 1.0151422 0.6581629 0.6837864
0.689888 0.4732172 0.6220045 0.48476934 -0.4563285 0.13511188 -0.07603604 0.6383676
00000000: b86c b23e 67bc debe 48da de3e 1a9a 613f
00000010: 3b52 06be 171e 4bbf fcbc 173f e56e 9f3e
00000020: 1bbd c73e 0fe8 f23d abf5 15bf 569c a13e
00000030: 9953 e1bd 3d12 d6be b0f9 833f 3f0c 98be
00000040: 8c5a bd3e 450b f23d 143c 733f c89d 053f
00000050: 74a4 483f 2ef0 813f 5d7d 283f a00c 2f3f
00000060: 809c 303f 8649 f23e b03b 1f3f b033 f83e
00000070: e4a3 e9be c55a 0a3e c9b8 9bbd 0f6c 233f

decoder.2.weight f4 [20, 32]
-0.31903663 -0.626247 -0.50261104 -0.87522477 -0.20310578 -0.23676714 -0.780598 -0.61095226
-0.6570007 -0.67604464 -0.53944093 -0.9564864 -0.77584755 -0.2758661 -0.5883299 -0.66491
-0.669356 -1.331197 -0.6672887 -0.7433163 -0.7847815 -0.85677904 -1.4556144 -0.72404855
-0.7196297 -0.6122637 -1.0206593 -0.79507107 -0.6421138 -0.34562078 -0.85588014 -0.62656665
0.062006164 -0.032454036 -0.026013356 -0.0008222911 0.053262964 -0.06609039 0.031347465 0.052694783
-0.15018265 -0.026392361 -0.038557243 -0.031296507 0.06802958 0.022347081 0.062689155 -0.044768654
0.054469194 0.00068308774 0.072242156 -0.024879493 0.01769691 -0.08850184 -0.013787756 0.04532732
0.09722987 0.017554669 0.14555252 0.053109985 0.010461346 -0.0017629291 -0.037081603 -0.12261441
-0.08127981 0.13884398 -0.14407386 -0.17202567 -0.009270021 0.23212405 -0.10000624 -0.017108364
0.026963146 -0.019571472 0.14843403 -0.021311555 0.013643757 0.03615644 -0.04227244 0.031179987
-0.10550795 -0.038640417 -0.18672793 -0.3243288 -0.21551733 -0.15243627 -0.1707217 -0.23357502
-0.14291546 -0.0019851252 -0.2953788 -0.16685955 0.06629577 0.06785391 -0.01679699 -0.29108343
0.04613579 0.023438262 -0.07478649 0.031866245 -0.112666376 -0.020444198 -0.031426568 0.045495562
-0.054184496 0.10384285 -0.11283504 0.022643693 -0.07145254 -0.028567372 -0.06541976 0.011355294
0.10191873 -0.019481786 0.119149454 0.075585365 0.12604274 0.08107533 -0.008998237 0.042046085
0.11859202 0.09458242 -0.121009775 0.121178456 -0.20766486 0.013179829 0.08251266 -0.15196401
-0.0077356496 0.05232408 0.019795574 -0.06947649 0.06530327 -0.022862297 0.0032315012 0.09397016
-0.13204752 -0.041863937 0.16260664 -0.059755486 -0.07518453 0.06327962 -0.08429878 0.016640909
-0.031267356 -0.017994162 -0.17359649 -0.3771649 -0.1541861 -0.114465035 -0.060693774 0.03514352
-0.12520334 -0.12532611 -0.109163135 -0.19382407 0.13965437 0.028077113 0.07197204 -0.15696006
-0.17519401 -0.019748487 0.054373436 0.12958726 -0.07370241 -0.12430374 -0.05362814 -0.05650279
0.10156913 0.057606455 0.13325483 0.06658797 0.11437492 0.044466235 0.106447555 -0.058125254
0.0067302473 0.054104846 0.06965857 0.10289528 -0.027511511 -0.07477358 0.0038976942 0.09792117
-0.08435585 -0.013986561 0.017946687 -0.116246566 0.035085335 -0.09428337 -0.10580853 0.08153368
0.033196025 0.008279301 0.03004264 0.029411249 -0.036598865 0.06391012 -0.051415984 0.00823158
-0.0027038343 0.024035495 0.076704144 -0.021414537 -0.0018001436 -0.027560705 -0.1922514 -0.007524828
-0.063975185 0.005343835 0.044570606 -0.2142718 0.0049125026 -0.12998086 0.010887992 -0.03955369
-0.18113334 -0.059767805 -0.13928595 -0.0876298 0.110322244 -0.014403912 0.0056495387 -0.019488769
0.0005243858 -0.021024773 0.008633784 0.14645761 -0.10056552 -0.05956118 -0.0812349 0.06182647
-0.031095669 0.02939177 0.087384015 0.037870817 0.035738416 0.022004336 0.0014051994 0.04648674
0.097380035 0.015918551 0.06843071 -0.05288907 0.11792107 0.13503684 -0.12733504 0.077935636
0.066121124 -0.11316187 0.010155914 -0.07022894 -0.008364493 -0.05257422 -0.041134823 -0.08672132
00000000: c558 a3be b951 20bf 1eab 00bf bb0e 60bf
00000010: f6fa 4fbe 1673 72be 45d5 47bf 5e67 1cbf
00000020: 3331 28bf 4311 2dbf cd18 0abf 4bdc 74bf
00000030: f29d 46bf 523e 8dbe ca9c 16bf 8b37 2abf
00000040: ea5a 2bbf aa64 aabf 6fd3 2abf fa49 3ebf
00000050: 71e7 48bf df55 5bbf 9351 babf 3f5b 39bf
00000060: a739 38bf 50bd 1cbf f7a4 82bf c789 4bbf
00000070: 9261 24bf 35f5 b0be f61a 5bbf ac66 20bf
00000080: 2dfa 7d3d 86ee 04bd f619 d5bc 068f 57ba
00000090: 442a 5a3d 665a 87bd 3366 003d 7cd6 573d
000000a0: 7bc9 19be cb34 d8bc 33ee 1dbd c430 00bd
000000b0: 1853 8b3d 3a11 b73c 2c63 803d 565f 37bd
000000c0: 171b 5f3d 3e11 333a b2f3 933d 14d0 cbbc
000000d0: 1cf9 903c 7440 b5bd 0ae6 61bc 24a9 393d
000000e0: 7420 c73d cfce 8f3c b80b 153e db89 593d
000000f0: 1166 2b3c 1612 e7ba e1e2 17bd 441d fbbd
00000100: 0776 a6bd 1e2d 0e3e 1988 13be 7f27 30be
00000110: 49e1 17bc edb1 6d3e 12d0 ccbd d726 8cbc
00000120: d1e1 dc3c 5a54 a0bc 17ff 173e 9295 aebc
00000130: 118a 5f3c c618 143d de25 2dbd 2c6d ff3c
00000140: 8d14 d8bd 6a45 1ebd 9b35 3fbe 6d0e a6be
00000150: 93b0 5cbe 4118 1cbe abd1 2ebe 4a2e 6fbe
00000160: 6e58 12be e018 02bb e43b 97be 3bdd 2abe
00000170: 14c6 873d fef6 8a3d d799 89bc e308 95be
00000180: e2f8 3c3d 9901 c03c a929 99bd 2e86 023d
00000190: a1bd e6bd 977a a7bc 25b9 00bd 8e59 3a3d
000001a0: 90f0 5dbd 8fab d43d 0f16 e7bd 447f b93c
000001b0: b655 92bd 1f06 eabc ccfa 85bd 8e0b 3a3c
000001c0: c4ba d03d 4498 9fbc a104 f43d 80cc 9a3d
000001d0: 5911 013e d30a a63d 576d 13bc 8438 2c3d
000001e0: 5fe0 f23d 6eb4 c13d f9d3 f7bd 692c f83d
000001f0: 19a6 54be 36f0 573c 66fc a83d 749c 1bbe
00000200: 557b fdbb c651 563d 542a a23c b149 8ebd
00000210: b9bd 853d b649 bbbc 98c7 533b 6d73 c03d
00000220: 7737 07be 8579 2bbd 5b82 263e 2bc2 74bd
00000230: 59fa 99bd bf98 813d d7a4 acbd 8452 883c
00000240: 3312 00bd 7e68 93bc 47c3 31be c21b c1be
00000250: f6e2 1dbe a56c eabd 099a 78bd a7f2 0f3d
00000260: 4e35 00be 7d55 00be ec90 dfbd d179 46be
00000270: 8e01 0f3e f901 e63c 1466 933d 23ba 20be
00000280: 0f66 33be 94c7 a1bc aeb6 5e3d 86b2 043e
00000290: 4af1 96bd f692 febd 2ea9 5bbd 786f 67bd
000002a0: 7a03 d03d bff4 6b3d f473 083e 465f 883d
000002b0: 663d ea3d 3a22 363d 2d01 da3d bf14 6ebd
000002c0: 6889 dc3b 0b9d 5d3d 27a9 8e3d c3ba d23d
000002d0: d25f e1bc e422 99bd 7570 7f3b e58a c83d
000002e0: c3c2 acbd e427 65bc ee04 933c ae12 eebd
000002f0: a4b5 0f3d a417 c1bd 24b2 d8bd 21fb a63d
00000300: 8ef8 073d e8a5 073c fc1b f63c dcef f03c
00000310: b1e8 15bd 4fe3 823d 9199 52bd c0dd 063c
00000320: d032 31bb 16e6 c43c 1017 9d3d 8a6d afbc
00000330: ccf2 ebba fdc6 e1bc 8ddd 44be d592 f6bb
00000340: 6c05 83bd 561b af3b ab8f 363d 116a 5bbe
00000350: 0ff9 a03b b419 05be 8c63 323c 0d03 22bd
00000360: 057b 39be 16cf 74bd faa0 0ebe 4177 b3bd
00000370: a1f0 e13d 63fe 6bbc c41f b93b e9a6 9fbc
00000380: ef76 093a 253c acbc b774 0d3c fcf8 153e
00000390: 4cf5 cdbd 6df6 73bd 7c5e a6bd c13d 7d3d
000003a0: 58bc febc 02c7 f03c 64f6 b23d 6e1e 1b3d
000003b0: 7262 123d 7042 b43c ab2e b83a e168 3e3d
000003c0: 2f6f c73d 9f67 823c 6625 8c3d 36a2 58bd
000003d0: 9a80 f13d 1947 0a3e 1e64 02be b89c 9f3d
000003e0: 836a 873d 69c1 e7bd fe64 263c 31d4 8fbd
000003f0: 3a0b 09bc 1158 57bd fd7c 28bd f39a b1bd

decoder.2.bias f4 [20]
-0.60999703 0.18223506 -0.32198355 0.02122253 -0.16790062 0.10411003 -0.12872517 0.04042735
-0.2217533 0.040239885 -0.051858425 0.08079736 0.15710808 0.04332777 0.06431571 0.10979128
0.18290739 0.053145144 0.07302744 0.01833366
00000000: c428 1cbf d49b 3a3e 07db a4be dfda ad3c
00000010: 24ee 2bbe a437 d53d 88d0 03be 2697 253d
00000020: 4c13 63be 94d2 243d 8069 54bd 1679 a53d
00000030: f1e0 203e 7678 313d f4b7 833d 40da e03d
00000040: 134c 3b3e b9ae 593d 698f 953d 7930 963c
